Discord Chatbot (asfar)/data.pth (torch, 4695 bytes, 6 tensors)

l1.weight f4 [8, 48]
00000000: ba32 fabd 8c0d 5abd f4cb 45be 24a5 d63b
00000010: 63c4 aebd 56fd 053f 4e79 dcbd 50ac 8bbe
00000020: 39b0 a7bd 1d9a 9cbe 5f80 0f3d 8dfd c43e
00000030: 39bb 303f 9283 1a3f a7af bd3e c683 213c
00000040: a576 113f 4193 2f3f 2d5a f3bd 57f4 68bd
00000050: 792c c7bc ae44 cabd efb9 2d3e b567 ab3e
00000060: 13e1 61be 3bfd 3d3f f5b0 ea3e 320c 7c3e
00000070: bb2b ed3e ccf8 c6bd adcf 8fbe 22d3 3c3e
00000080: 5165 133f a4e5 95be 00e6 b03c 29d1 2b3d
00000090: 7ee3 ed3e 791e 4f3f a70e c43e 4633 f23e
000000a0: 8600 cfbe 516c 4dbe 8ab0 a83e e282 5d3f
000000b0: 2922 913e 92cc 213f e8c7 d13d 77bc 633d
000000c0: 1fce 9d3d f98e d2bd 183f ad3d 9ea4 e0bd
000000d0: d196 f1bd 9231 a23d 90ed 80bc 382a ccbc
000000e0: 7ec6 a33d 36ba 063e 22c0 9abd 4819 8cbc
000000f0: b026 acbd ecd6 773d 18dd 39bd 8a05 023e
00000100: aa4e 10be 3c03 fd3d ecb0 bf3d f428 f03d
00000110: 5a18 0bbe be9a 0dbe 4471 083e 6c48 033d
00000120: 8020 fc3d 1468 fcbd 843c e23d 0982 a9bc
00000130: 0002 9b3c e26b b43d a050 f93b 448c 34bd
00000140: c84f 45bd d325 d6bd 148a 283d f49b bcbd
00000150: 1a1c 8f3d 403a 123e 4c52 ebbd 3603 08be
00000160: c0be 1f3d 8b6c 9fbd 40dd 963b eebd 65bd
00000170: 6675 b7bd 3243 853d 58ae 903c 2600 8c3d
00000180: 3969 0abe 337d 2b3d ef43 1c3f 443e 67be
00000190: 8899 193e 0c3d 243f 52c2 d93e b394 a03e
000001a0: 973d 423f f396 cb3e b555 22be 8a9c 92be
000001b0: 5fc1 023e 4a5a 4bbe 7cd0 8ebd 3030 a6be
000001c0: 587b 393f c551 b7be fb5f f7be 4fc6 19be
000001d0: 411c f1be f46b f7be ac36 1dbf 2bcf fabc
000001e0: 00dd 10be 0828 62be 144d 02be 95d2 af3e
000001f0: 3030 14bd 89c1 b9bb 51fe 183f 1fb1 19bd
00000200: 3978 d1bc 1731 2c3f d020 b03e fbe3 b43e
00000210: 17c1 863e c500 e1be c8a1 82bd daee db3e
00000220: 1d20 27bf b18b 4abe 152f acbd 7666 f1be
00000230: 9b1b 3fbe b900 aabe 26a3 ed3e fba6 993e
00000240: 29a0 aebd dd37 db3e 3ee4 b23e 75e7 adbe
00000250: d4bc 9b3e e7d5 033f 0def 223f 8155 b13e
00000260: 1f42 113f 8a10 043f 795e 88be a605 e6be
00000270: 5f40 1c3f 7640 f5bd 5a46 f3be 8709 8bbe
00000280: 040c f93e 4239 a83e 9db7 ebbe 93fd 06be
00000290: 998a 09bf fe54 04bf 7655 25bf 31fb 053f
000002a0: 6ce5 c9be 386d 403f 4a4d 083f 4ce0 163e
000002b0: 3312 ebbd 439f 013f fb8b dc3e f0ad 84be
000002c0: 7142 dd3e 80e2 023f d3d3 e23e 7f7d fe3e
000002d0: 978c 3e3e 62c4 f93e 9f74 17bd 62b7 a83e
000002e0: d673 c8be b3e5 893d fca9 b33e 547e 2d3f
000002f0: 4c1a d8be 50bd ff3e c940 e13e 8f6f 0c3f
00000300: 7d1a 71be e995 a83c 363b 1ebe 16b1 323e
00000310: bcdc 593e a488 273f 5657 93bd 0d61 0abe
00000320: 24f0 d9be 5e9e 07be d696 c03e 2fb2 6fbe
00000330: 7ac1 70be 8042 cdbe e53b 223c d351 bf3e
00000340: 52c5 343f 1e0f 23be aef4 0a3f 6d2d 82be
00000350: e5e8 dd3e f070 023f d781 ef3e 8018 cebd
00000360: e4e7 d33e ae74 34be 84b3 73be 848a 0c3f
00000370: 1737 c2be 3686 5fbc 9554 59be ebbb 8d3c
00000380: 8723 eebd e3a5 c6be 21b9 19be 18ef a8bd
00000390: dd22 083f 721c 82be 145f 26be 6d04 cabd
000003a0: 61cc 12bf 1979 abbd 47a8 0d3e ca95 e4bd
000003b0: c493 fdbc 2be3 f8bc f14a 2cbe 9f48 e13c
000003c0: 4f23 2d3f 185b 8d3e 6d17 573f 97db 2d3e
000003d0: 967b 833e 9a5a 75be a86c fe3e ab54 373f
000003e0: cb2f 233f 7535 183f 4479 333e bcff 22be
000003f0: 7a33 a03d 2c16 4abe fd8c 93be 9cf2 343e
-0.122167066 -0.053235576 -0.19316083 0.006550448 -0.085335515 0.52339685 -0.107653245 -0.27279902
-0.08187909 -0.3058633 0.035034534 0.38474694 0.6903568 0.6035701 0.37048075 0.009858077
0.5682166 0.68584067 -0.11882434 -0.056873646 -0.024313198 -0.09876381 0.1696546 0.3347756
-0.22058515 0.74214524 0.45838133 0.24614027 0.46322426 -0.09715423 -0.28088132 0.18439916
0.5757647 -0.29276764 0.021594048 0.041947518 0.46462625 0.8090587 0.3829243 0.47304744
-0.40430087 -0.2006085 0.3294719 0.86527836 0.28346375 0.63202775 0.10243207 0.055599656
0.0770533 -0.10281176 0.084593 -0.10968898 -0.11796344 0.07919611 -0.015738279 -0.024922475
0.07996844 0.13156971 -0.07556178 -0.017101899 -0.084058166 0.0605077 -0.045376867 0.12697425
-0.14092508 0.123541325 0.09359917 0.11726561 -0.13583508 -0.1382856 0.13324457 0.03205149
0.123108864 -0.12324539 0.11046699 -0.020691888 0.018921852 0.088096395 0.007608488 -0.04407908
-0.04817179 -0.10456433 0.041147307 -0.09209433 0.06987782 0.14280033 -0.11490306 -0.13282475
0.039000273 -0.07784375 0.004604012 -0.056089334 -0.08957939 0.06506957 0.017661259 0.06835966
-0.13516702 0.041867446 0.6104116 -0.22582346 0.14999974 0.6415565 0.42531067 0.31363449
0.7587523 0.39763603 -0.15853007 -0.28635055 0.12769078 -0.19858661 -0.06973359 -0.3245864
0.7245383 -0.35804573 -0.48315415 -0.15017055 -0.4709187 -0.4832455 -0.6141155 -0.030616364
-0.14146805 -0.22085583 -0.12724715 0.3434035 -0.036178768 -0.005668823 0.59763056 -0.03752243
-0.025570022 0.67262405 0.34400034 0.35330185 0.2631919 -0.439459 -0.063785136 0.42955667
-0.65283376 -0.1977985 -0.08407418 -0.47148484 -0.18662874 -0.33203676 0.46413535 0.30010208
-0.08526642 0.42816058 0.3493976 -0.3396565 0.30417502 0.51498264 0.6364601 0.34635547
0.5674152 0.51587737 -0.26634577 -0.44926184 0.6103572 -0.119751856 -0.4751461 -0.27155706
0.4864198 0.32856184 -0.46038523 -0.13182668 -0.5372711 -0.5169219 -0.6458353 0.5233641
-0.39432847 0.75166655 0.53242934 0.14734 -0.114780806 0.5063364 0.43075547 -0.25913954
0.43214753 0.5112686 0.44302234 0.4970512 0.18608318 0.4878264 -0.036976453 0.3295241
-0.39150876 0.06733265 0.35090625 0.67770886 -0.42207563 0.4994912 0.4399474 0.54857725
-0.2354526 0.020579295 -0.15452275 0.17450365 0.2127561 0.6544287 -0.071943924 -0.13513584
-0.42566025 -0.13244006 0.3761508 -0.23407815 -0.23511305 -0.40089798 0.009901975 0.37367114
0.70613587 -0.15923735 0.542796 -0.25425282 0.43341747 0.5095358 0.46778747 -0.10063267
0.41387856 -0.17622635 -0.23798949 0.5489886 -0.37932655 -0.013642838 -0.21223672 0.01730152
-0.1162787 -0.38798437 -0.15012027 -0.082487285 0.531782 -0.25412327 -0.16247207 -0.098641254
-0.5734311 -0.08372707 0.13833724 -0.111613825 -0.03095425 -0.03038176 -0.16825463 0.027500449
0.67632 0.27608562 0.8402012 0.16978298 0.25680226 -0.23960343 0.49692273 0.7161357
0.637448 0.5945657 0.17526728 -0.15917867 0.078223184 -0.1973502 -0.28818503 0.17670673

l1.bias f4 [8]
00000000: 98fc ce3e 5231 11be 545c f73e 858d 093f
00000010: 37c9 123f a91d 193f 4805 313f 2e6b 713f
0.4042709 -0.1417897 0.48312628 0.53731567 0.5733828 0.5981088 0.69148684 0.9430417

l2.weight f4 [8, 8]
00000000: 20bf f3be 2c7d 7c3e 89af 0ebf efa1 28bf
00000010: c925 723e c1af 0d3f 50ce 7c3f cb27 363f
00000020: 326a 7a3e e3b6 993e 86cf cdbe a3fc 41bf
00000030: e69e bebe e24b 39bf 4ba4 2a3f 0b0f 2fbd
00000040: 789e 46bd cc97 0dbe 6701 afbe b87c 0d3d
00000050: 46e6 4ebe bee4 2b3e 1ef4 1cbe 1822 61bd
00000060: 8c49 703f ba0a 0e3e b32e 41bf 51bf 8f3f
00000070: f19e 4dbf c2ef 3bbe d673 793f d3fd 20bf
00000080: b8d8 29be e732 1f3e b0ee 4cbf b09c 5fbf
00000090: 71e5 923e 3078 ab3e 4ef7 893f e5e3 513f
000000a0: 4f04 eabe dde9 b43e 463c 2abf efd0 a0be
000000b0: 106f fabe 446c 4e3f a675 663f abd9 4dbf
000000c0: eae9 5dbf c7a6 4ebd 8121 043f 00a6 2b3f
000000d0: 1261 8fbf 4b47 a93f b87d f93e ea02 a4bd
000000e0: 21d5 2a3f 8bcb fcbd 9ddd 803f ac85 8d3f
000000f0: 36e7 683f bda4 083e 503c b7be 020d a83f
-0.47606754 0.24657124 -0.55736595 -0.6587209 0.23647226 0.55346304 0.9875231 0.7115447
0.24454573 0.30022344 -0.4019739 -0.7577612 -0.37230605 -0.72381413 0.6665694 -0.042738955
-0.04849097 -0.13827437 -0.34180757 0.03454277 -0.2020503 0.16786477 -0.15327498 -0.054964155
0.93862224 0.1387128 -0.7546188 1.123026 -0.8032065 -0.18353179 0.97442377 -0.62887305
-0.16586578 0.15546761 -0.8005171 -0.8734846 0.28690675 0.33490133 1.0778596 0.81988364
-0.45706412 0.35334674 -0.6649822 -0.31409404 -0.4891286 0.8063395 0.9002327 -0.8041026
-0.8668505 -0.05045202 0.5161362 0.6705017 -1.1201499 1.3224882 0.48728728 -0.08008368
0.6673146 -0.1234351 1.0067631 1.1056418 0.909778 0.13344093 -0.35788202 1.312897

l2.bias f4 [8]
00000000: a7bb c43e 3d4e 023e ec90 80be 9344 f13e
00000010: 2b37 f93e 6f48 5d3e bd0d ef3e af2e 0b3f
0.38424417 0.12725158 -0.25110567 0.4712263 0.48674902 0.21609662 0.4669017 0.5436811

l3.weight f4 [6, 8]
00000000: 60d4 48be 4ffb 663f 7663 413e 0bcb f13e
00000010: ab98 c63e df8c 2e3f 1148 86bf 21b4 80bf
00000020: d1d5 96bf 394b 9fbe 08a8 163d d348 4bbf
00000030: fe0d 4cbf 6494 eabe 0e03 c3bf d106 763f
00000040: 5912 2b3f b77a 69bf 9cbc 48be 7bae 33bf
00000050: 83d1 5f3f fcf3 6dbf 0a9c 6dbe 037c ddbd
00000060: fea3 57bf 171f 06bf d4f9 8f3d a128 4e3f
00000070: 901f f4be 0bd1 84bf 00a8 28bf c62f dcbd
00000080: 4cee fdbe 4b22 bfbe b4a5 7bbe 3904 bdbe
00000090: 3d76 3cbf 1f50 6fbf 2e4f 253f 3a6b 843e
000000a0: 6bdd 1c3e bd02 92bf 0013 12be 0c7c 83bd
000000b0: b3ea 433e 64d6 9a3f 3739 793f 95a1 b0bf
-0.19612265 0.90227216 0.18885598 0.47225222 0.3878835 0.681837 -1.0490743 -1.0054971
-1.1784002 -0.31112078 0.03678134 -0.79407996 -0.7970885 -0.45816338 -1.5235307 0.9610415
0.6682487 -0.91202873 -0.19603199 -0.7018811 0.87429065 -0.92950416 -0.23204055 -0.10814669
-0.8423461 -0.5239119 0.07030073 0.80530745 -0.4768033 -1.0376295 -0.6588135 -0.107512996
-0.4959587 -0.3733085 -0.2457493 -0.36917284 -0.7361792 -0.9348163 0.64573944 0.25863057
0.15318839 -1.1407086 -0.1426506 -0.064201444 0.191325 1.2096677 0.9735293 -1.3799311

l3.bias f4 [6]
00000000: 973b 47be 87cc 673f ab2a 07be 714a fa3c
00000010: 7934 0abf 2e3d ea3d
-0.19456325 0.9054646 -0.1319987 0.030553075 -0.53986317 0.1143745
