Chat Bots(WhatsApp)/chatbot-gui/data.pth (torch, 5207 bytes, 6 tensors)

l1.weight f4 [8, 57]
0	0x3f193d19	0.5985885
1	0x3e14fcf0	0.14549613
2	0x3f07f1aa	0.53103125
3	0x3ea1c7c3	0.3159772
4	0x3ef6b0ce	0.48181766
5	0xbf6c0d7f	-0.92208093
6	0x3e4838df	0.19552945
7	0x3eb66eb7	0.35631344
8	0x3eac014f	0.33594748
9	0x3ea0817b	0.31348786
10	0x3ec3f683	0.3827401
11	0x3ede3643	0.43400773
12	0x3f068a40	0.525547
13	0xbe1c7a7b	-0.15281098
14	0x3ee32ed3	0.44371662
15	0xbe143b2b	-0.14475696
16	0x3ea38f0d	0.31945077
17	0x3ea1d310	0.3160634
18	0x3ec09b16	0.3761832
19	0xbf62af45	-0.8854869
20	0xbe8d72c4	-0.27626622
21	0x3f328c61	0.6974545
22	0x3eefb972	0.4682117
23	0x3f1c7b5c	0.6112573
24	0x3f3333e2	0.7000104
25	0x3f23445f	0.637762
26	0x3e968e2f	0.29405352
27	0x3e9b15fc	0.3029021
28	0xbeda5971	-0.42646363
29	0xbe35245d	-0.17689653
30	0xbdeee061	-0.11663891
31	0xbe908e3f	-0.28233525
32	0xbf17b770	-0.5926428
33	0x3ec7033d	0.38869658
34	0x3ea8b923	0.32953748
35	0x3f1153fa	0.56768763
36	0x3eb320a4	0.3498584
37	0xbcf25cb6	-0.029585224
38	0x3eaec481	0.34134296
39	0xbe84fb64	-0.25973046
40	0x3e4751f2	0.19464853
41	0x3e27c361	0.16383125
42	0x3e811974	0.25214732
43	0xbf0a6f0e	-0.54075706
44	0xbe91ed4f	-0.28501365
45	0x3ec841dd	0.3911275
46	0xbceae1e4	-0.028672166
47	0x3ecf3627	0.40471002
48	0xbe2c429d	-0.16822286
49	0x3f255101	0.6457673
50	0x3ebe2fa4	0.37145722
51	0x3e5942d3	0.21216898
52	0xbef1535f	-0.4713392
53	0x3ec090f7	0.376106
54	0xbe00e458	-0.12587106
55	0x3e840735	0.2578675
56	0x3eb53631	0.35392907
57	0xbe4e7c37	-0.20164572
58	0x3f032edc	0.51243377
59	0xbf17df62	-0.5932523
60	0xbe80cffd	-0.25158682
61	0x3e3ba2b7	0.1832379
62	0xbb74f9c8	-0.0037380327
63	0xbd156f24	-0.036482945
64	0xbf1e7b7c	-0.6190717
65	0xbe3df091	-0.185488
66	0xbed4cc2e	-0.41562027
67	0xbf0ae3cb	-0.54253834
68	0x3e4e535b	0.20148985
69	0x3eefc138	0.46827102
70	0x3f0c33bf	0.5476646
71	0x3f36c521	0.71394545
72	0x3effb4c8	0.49942613
73	0xbed4b30f	-0.4154286
74	0x3e93028c	0.2871288
75	0x3e956250	0.2917657
76	0x3dab19ff	0.08354568
77	0x3ebe7173	0.3719593
78	0x3ec8c232	0.3921066
79	0xbdc51c94	-0.096245915
80	0x3ea0eee5	0.31432262
81	0x3ee07d37	0.4384553
82	0x3e42036c	0.18946618
83	0x3e1a7da4	0.1508699
84	0xbe5efece	-0.21776888
85	0x3f139aa5	0.57657844
86	0x3f0c8434	0.54889226
87	0x3e9276ce	0.28606266
88	0x3f0132bc	0.5046804
89	0xbe78360d	-0.24239369
90	0x3f36eed7	0.7145819
91	0xbed4a4ac	-0.41531885
92	0xbd57c6bd	-0.052679766
93	0xbf0f15d7	-0.558927
94	0x3f0d7638	0.5525851
95	0x3ea82c23	0.32846174
96	0x3ece9d50	0.40354395
97	0xbe7fc4a8	-0.24977362
98	0xbe42b27c	-0.19013399
99	0xbdc091c8	-0.094028056
100	0xbe48c810	-0.19607568
101	0x3f21ebda	0.63250506
102	0x3ebd0310	0.369164
103	0x3f0b70aa	0.54468787
104	0x3ebaed56	0.36509198
105	0x3f39ac99	0.7252899
106	0xbf2c67bb	-0.6734578
107	0xbdf397cd	-0.11894188
108	0x3ef6cdcb	0.48203883
109	0x3f44fc22	0.76947224
110	0x3ea3c6b5	0.3198754
111	0x3f1046f7	0.56358284
112	0xbe208b7f	-0.15678214
113	0x3e842992	0.25812966
114	0x3e88fdd3	0.26756153
115	0xbe8db118	-0.27674174
116	0xbeeac37e	-0.45852274
117	0x3eee9256	0.4659602
118	0x3ed338c0	0.41254234
119	0xbf0e59bd	-0.5560568
120	0xbe238ee4	-0.15972477
121	0xbecff83f	-0.40619084
122	0xbf266de2	-0.6501142
123	0xbf0de2f6	-0.5542444
124	0xbf0268ad	-0.5094097
125	0x3f3fc94f	0.7491655
126	0x3f09d832	0.5384551
127	0x3e85efba	0.2615946
128	0x3e8d83a8	0.27639508
129	0xbe25ad96	-0.16179499
130	0xbf0e5822	-0.5560323
131	0x3ea14245	0.31495872
132	0x3efdf18b	0.49598345
133	0xbf0e52af	-0.55594915
134	0x3efa6c4b	0.48910746
135	0x3f4e87cc	0.8067596
136	0xbd0a2a28	-0.03373161
137	0x3f5d83c2	0.8652917
138	0x3f53224d	0.82474214
139	0x3f11e87f	0.56995386
140	0x3e8788d0	0.26471567
141	0x3f23356a	0.6375338
142	0x3f0def0d	0.5544289
143	0xbeb54a4c	-0.35408247
144	0x3ee6c8dd	0.45075122
145	0xbe9e858d	-0.30961266
146	0xbec2015f	-0.3789167
147	0x3e5fa274	0.21839315
148	0xbf0e4d96	-0.55587137
149	0x3e2c1d07	0.16807948
150	0xbf25db24	-0.6478751
151	0xbcf0af89	-0.029380577
152	0x3eede13f	0.46460912
153	0x3ea84e12	0.32872063
154	0xbf142074	-0.5786202
155	0xbe3b9ff4	-0.18322736
156	0xbe705410	-0.23469567
157	0xbeee77a5	-0.46575657
158	0x3f3ca9bf	0.7369651
159	0x3ec9777f	0.3934898
160	0xbd310a99	-0.043222997
161	0xbe08c4ae	-0.13356277
162	0xbdbd157a	-0.09232612
163	0xbdaf2501	-0.0855198
164	0xba8702d4	-0.0010300525
165	0x3f166c80	0.5875931
166	0x3f0ea8e6	0.5572647
167	0x3f019f00	0.5063324
168	0x3f0537dd	0.52038366
169	0xbe78fc58	-0.24315012
170	0x3e93dfca	0.28881675
171	0xbc6df5a0	-0.014523894
172	0x3d2c6abc	0.042093977
173	0xba845380	-0.0010095686
174	0xbdb58da6	-0.08864908
175	0xbd66f636	-0.05638715
176	0x3c5e5b50	0.013571575
177	0x3ccd6fa0	0.025077641
178	0xbbe4d9a0	-0.0069839507
179	0x3d8075fc	0.06272504
180	0xbd416f7a	-0.047225453
181	0xbc4b4d10	-0.01240851
182	0x3d26c27c	0.04071282
183	0x3d386008	0.045013458
184	0x3bce60dc	0.0062981676
185	0x3d128220	0.035768628
186	0xbd6590fc	-0.05604647
187	0x3dd82656	0.10554187
188	0xbd98342a	-0.074318245
189	0xbdb43bfc	-0.088005036
190	0x3cf43db8	0.029814586
191	0xbd6f2532	-0.05838508
192	0xbdd6a632	-0.10480918
193	0xbbadf960	-0.005309269
194	0x3d64cfe8	0.055862337
195	0xbd97f36c	-0.07419476
196	0xbdd1e465	-0.10248641
197	0xbd75ed8a	-0.060040988
198	0x3da08acc	0.078389734
199	0x3becbc60	0.0072246045
200	0xbd2fc4cc	-0.04291229
201	0xbd284cc0	-0.04108882
202	0xbdfdb4ec	-0.12388024
203	0xbdd68e43	-0.10476353
204	0xbd2a50c2	-0.041580923
205	0xbd8934ef	-0.066995494
206	0x3b588340	0.0033037215
207	0xbdcaa945	-0.09895567
208	0xbd8bc14a	-0.06823976
209	0x3c877b30	0.016538233
210	0xbae91b00	-0.0017784536
211	0x3d98d870	0.07463157
212	0x3dbe6690	0.09296906
213	0xbde95871	-0.11393822
214	0x3d5309a4	0.051522866
215	0x3d860407	0.06543737
216	0x3c6685e0	0.014070004
217	0x3dba943e	0.09110306
218	0xbda72225	-0.081608094
219	0x3d5a2e5c	0.053266868
220	0xbdfad8aa	-0.12248357
221	0xbde6c7ac	-0.11268553
222	0xbd2191d2	-0.039445706
223	0x3da68eaf	0.081326835
224	0xbe03f79d	-0.12887426
225	0x3d1d916c	0.038468763
226	0x3d50f45c	0.05101429
227	0xbd6379bf	-0.055536028
228	0xbcd80690	-0.026370317
229	0x3ed0b0b6	0.4075982
230	0x3ed4f962	0.41596514
231	0x3c637e37	0.013885072
232	0x3eb0885b	0.3447903
233	0xbebef7ed	-0.37298527
234	0x3e964eb5	0.29356924
235	0x3e743926	0.23849925
236	0x3ec4485b	0.38336453
237	0xbebed8bf	-0.3727474
238	0x3cd884cf	0.026430516
239	0x3d9a0bff	0.07521819
240	0x3f0de2ad	0.55424005
241	0x3f30c811	0.6905528
242	0x3f003727	0.50084156
243	0x3eaf3b90	0.3422513
244	0xbebb9eef	-0.36644694
245	0x3edced32	0.43149716
246	0x3dd619e0	0.10454154
247	0xbebef031	-0.37292627
248	0x3ed87c62	0.42282397
249	0x3f04c7d7	0.5186743
250	0xbe26a3de	-0.16273448
251	0x3eea9830	0.45819235
252	0x3ee7b86e	0.45257896
253	0x3ecf72bf	0.40517232
254	0x3eae5dc1	0.34055904
255	0x3db7f9fa	0.08983226

l1.bias f4 [8]
0	0x3f8f970a	1.1217968
1	0x3ed4a871	0.4153476
2	0x3f0e5346	0.55595815
3	0xbe029e75	-0.12755759
4	0x3ebeeeb9	0.37291506
5	0x3f4a726f	0.7908086
6	0x3f00f275	0.5036996
7	0x3f05addd	0.5221842

l2.weight f4 [8, 8]
0	0x3f8d18b4	1.1023164
1	0xbf4c2a54	-0.7975209
2	0x3f3b6fbb	0.7321736
3	0x3e0b20d7	0.13586746
4	0xbf22b496	-0.635568
5	0x3f9470f7	1.1596974
6	0xbecee81b	-0.40411457
7	0x3f642a71	0.8912726
8	0xbf2a8b14	-0.66618466
9	0x3f616b3d	0.8805426
10	0xbf008945	-0.50209457
11	0x3e2d2806	0.16909799
12	0xbf504217	-0.81350845
13	0x3dbd74b0	0.09250772
14	0x3f571072	0.8400947
15	0x3ecf0797	0.40435478
16	0x3e8957ac	0.268247
17	0xbeb092e9	-0.34487084
18	0xbf67ac52	-0.90497315
19	0xbb9a7800	-0.004714012
20	0xbba54996	-0.0050441725
21	0x3f910a42	1.1331255
22	0x3facb850	1.3493748
23	0x3f9f2fa0	1.2436409
24	0x3f297c19	0.66204983
25	0x3f78a933	0.9713318
26	0x3f8700dd	1.0547138
27	0x3e01b3c1	0.12666227
28	0x3f484a9d	0.7823885
29	0x3f25258e	0.6451043
30	0xbf84621b	-1.034244
31	0xbf242fdb	-0.6413552
32	0x3ea3dc4e	0.32004017
33	0x3faeeed0	1.366663
34	0x3f9feca8	1.2494097
35	0xbe45082b	-0.19241397
36	0x3fb19efc	1.3876643
37	0x3f0e9ffa	0.55712855
38	0x3ed6f77e	0.41985697
39	0xbef200e5	-0.47266307
40	0x3fdc5b2b	1.7215322
41	0xbf0edd8e	-0.55806816
42	0x3be59902	0.0070067653
43	0x3e30be5b	0.17260115
44	0x3f1f5840	0.62244034
45	0xbf8f8b99	-1.1214477
46	0x3f6b4067	0.91895145
47	0xbfbf569a	-1.4948304
48	0xba195000	-0.0005848408
49	0xbe61df15	-0.22057755
50	0xbd157e38	-0.036497325
51	0x3e22695a	0.15860501
52	0x3eabf65b	0.33586392
53	0xbe775827	-0.24154721
54	0xbe619e04	-0.22032934
55	0xbe3b20b4	-0.18274194
56	0xbf241ce2	-0.6410657
57	0x3f775e7d	0.9662855
58	0xbf372242	-0.7153665
59	0xbe16ba13	-0.14719419
60	0x3f2a5c6f	0.6654729
61	0xbd05a97f	-0.032632347
62	0x3f6224c1	0.8833733
63	0x3f0baaa1	0.54557234

l2.bias f4 [8]
0	0x3f0d5145	0.5520213
1	0x3e00a9ea	0.12564817
2	0x3d9595fa	0.073039964
3	0x3f2dab51	0.67839533
4	0xbf114064	-0.5673888
5	0x3f82278f	1.0168322
6	0xbeb3cb7c	-0.35116184
7	0x3e53d157	0.20685326

l3.weight f4 [8, 8]
0	0x3ec455a1	0.3834658
1	0xbf1c9549	-0.6116529
2	0xbf31f2dd	-0.69511205
3	0x3ef7c021	0.4838877
4	0xbffe4836	-1.9865787
5	0x3fb1c956	1.3889568
6	0xbd10b2c0	-0.03532672
7	0xbfb65f08	-1.4247751
8	0xbf93be68	-1.1542482
9	0xbfa8e886	-1.319596
10	0xbf94e568	-1.1632509
11	0x3e49a1fc	0.19690698
12	0x3ed74c92	0.42050606
13	0x3f14a318	0.5806136
14	0x3ea121c9	0.3147109
15	0xbe924868	-0.28570867
16	0xbfaff9de	-1.3748128
17	0xbec3e930	-0.38263845
18	0x3e2d7cd8	0.16942155
19	0x3a8324c3	0.0010005463
20	0x3ecf5899	0.40497282
21	0xbf70e439	-0.9409824
22	0x3dc414e4	0.09574297
23	0x3ea17242	0.31532484
24	0x3d1bbb32	0.03802032
25	0x3f8c1968	1.0945253
26	0x3f2334c5	0.63752395
27	0xbfa8bac0	-1.3181992
28	0xbf90e250	-1.1319065
29	0xbf596abf	-0.84928507
30	0x3cd2a250	0.025712162
31	0x3f2394ad	0.63898736
32	0x3f2a36d5	0.6648992
33	0xbf90ac63	-1.1302608
34	0xbf9522a0	-1.1651192
35	0x3f27b033	0.65503234
36	0x3e0e6853	0.13906984
37	0xbdd0e7e4	-0.102004796
38	0xba711200	-0.00091961026
39	0xc0022b6e	-2.0339007
40	0xbf9fa7de	-1.2473104
41	0xbfd1f58e	-1.6403062
42	0xbfb760d5	-1.4326426
43	0x3f3c6526	0.7359184
44	0x3f338f4f	0.70140547
45	0xbfa7616c	-1.3076606
46	0x3e14b512	0.14522198
47	0xbe4c2495	-0.1993583
48	0xbf75a64d	-0.9595688
49	0xbfb86e3e	-1.4408643
50	0x3ec4ecca	0.38461906
51	0xbf6cc5d5	-0.9248937
52	0x3d9a7964	0.07542685
53	0x3f289fec	0.6586902
54	0x3c097d00	0.008391619
55	0x3cc82a73	0.024434304
56	0x3f61c4d4	0.8819096
57	0xbf96e811	-1.1789571
58	0x3f0e00a3	0.5546972
59	0xbf09cd1f	-0.53828615
60	0xbf0a08ce	-0.53919685
61	0xbf650de1	-0.894743
62	0xbda21fec	-0.07916245
63	0xbf8e511a	-1.11185

l3.bias f4 [8]
0	0x3f4de1d9	0.8042274
1	0xbf253b8c	-0.64543986
2	0x3ea2caa8	0.3179524
3	0x3e5c7be8	0.21531641
4	0xbea3af4c	-0.31969678
5	0xbe4398a2	-0.19101194
6	0xbd38047a	-0.044926144
7	0xbd101396	-0.03517493
