Chat Bots(WhatsApp)/chatbot-gui/data.pth (torch, 5207 bytes, 6 tensors)

l1.weight f4 [8, 57]
00000000: cee2 ee3e 65d0 2dbf d5f9 de3e c947 2a3e
00000010: 8127 4d3e 0c5b 0dbf d598 9e3e 7cfc 5f3e
00000020: 808b b83e cd94 10bf 3f12 9e3e db22 d63d
00000030: 7d7d 0a3f 710e 353f 25d4 0b3f 9472 05be
00000040: 77a1 10bf ec14 973e b4ba 0b3d 7087 0dbf
00000050: d0ad c73e aaf4 2c3e 7ad9 8d3e 2f9b c53e
00000060: 4bc8 be3e 422c b6ba a6d5 ec3e 2417 ef3d
00000070: c6e5 1f3f de9a f8be c1d2 e23e 6b50 1cbf
00000080: de78 dcbe 1286 083f cb95 10bf 2776 c23e
00000090: 7fc3 ab3e 0c3a 07be e273 813e 0db1 d83e
000000a0: b2bc 0a3f 03c6 073f 5ac9 c53e f1b7 f2be
000000b0: 9cfe 073f cb9d d93e da49 10be c7e8 233f
000000c0: 8219 26be 5f1f 483f 99b6 ac3e 67d7 ce3e
000000d0: 1a97 253f 3231 933e 543a 023f e495 fa3e
000000e0: add8 003f 2894 db3d 2184 b3be a667 e43e
000000f0: fa6e cd3e 6bc7 fd3e 9ed5 f6be 31c9 e83e
00000100: 5f72 b43e de38 fd3e 3df3 f6be b3d7 c53e
00000110: dee2 163f e52b 683e 445e dd3e eef9 773d
00000120: 7627 06be caf7 f6be f0ca c23d 2b30 303f
00000130: 168d f4be b4e6 ed3d b060 713f 7c48 9cbd
00000140: ad07 133f b71d 473f 9110 de3e 21a9 bf3e
00000150: eb2f 1c3f 9402 c33d 2c56 fabe ca3c a03c
00000160: df92 d3be 9933 babe 97a0 053e 63f3 f6be
00000170: 356f e4bd 9076 ff3e 246d 27be 56c2 aebc
00000180: ad81 4c3d 02f0 013f a97a 103f 486b 1e3f
00000190: 9837 d7be fa0c a43d 76d5 273e c5f7 b8bd
000001a0: 487f 073f 5713 cfbd df36 0dbf 2929 c1bd
000001b0: a7e1 b73e eb06 c13d 26ed 813c 6186 44bd
000001c0: 610d ed3e a3fb ac3e ac36 a3be b88c 033f
000001d0: a566 b13e d16e 7d3e a778 dc3e 5438 8c3e
000001e0: 0c30 ee3d 581d a33e e1c6 683e a66f 16bf
000001f0: 3897 c63e 922a 0b3f d197 473f c236 793e
00000200: 2178 613f 2a1e dc3e 2e42 14bf 5d2d 573f
00000210: 26d8 a13e 934e a23e 785e 81be cd78 173f
00000220: ab6d 07be 4c30 0c3f d321 da3e d18f 373f
00000230: 9174 1a3f 5f6f cb3e 66a9 e1be 6286 1c3f
00000240: 9bfc f03a 8c57 b33e 8483 003e 7cdf 3c3f
00000250: f0f5 13bf 87a1 99be 666a f33e ff44 023f
00000260: b15b 4e3f 3b02 33be 2796 9a3e 2a99 343e
00000270: 5620 aa3d bfc3 493e 628a 04bf 8f3e 1d3f
00000280: ca21 003f 980f 623f d356 de3e 6010 04bf
00000290: 87e3 9ebd 5104 a33d d65f f8be f631 2f3f
000002a0: 9f73 9ebe 61d1 1d3e ef42 2f3e 35c3 163f
000002b0: 2729 dc3e f8b0 ef3e c022 a13e 85d9 093f
000002c0: 1b07 f4be ccf9 513e 59c5 013f 36ca cb3e
000002d0: d128 40be e5ed f73e 6868 113f 6d2e eabd
000002e0: de3e bf3e 70d0 a6be 2f8f 50bd b259 45be
000002f0: cabe 3dbe 94ee c63e 7a21 f3be a886 9dbd
00000300: 7d88 1e3f 0ac5 cd3e a39e 533f a572 463f
00000310: c198 5a3e d672 debd 2db7 b83e 03a2 d23d
00000320: e58f a3be 939c b13d 1392 13bf a914 01bf
00000330: 7413 cebe 18d7 4fbe 011a 163f ec65 003f
00000340: 3a3c 253d 74a1 3e3d ff9d 013e e972 e03e
00000350: dbce 8f3e 7c77 703e 7ca3 a4be bae8 3ebe
00000360: 2d57 05be 25fe 1a3e a9e1 613e 0182 583e
00000370: 2e5c 963f cbcf 073f 08cc 643e d1af 1cbe
00000380: 18ab 46be 2413 98bb 1b24 9c3e 47bb c93e
00000390: 9336 80be 686f e23e 8f3d ccbe bb8a fa3e
000003a0: 10ed a53e d042 3c3f 6763 06be e0dd 0abe
000003b0: e5f0 02bf ca96 f9be 720a 8ebe f8c9 9b3e
000003c0: 36fb 52bd 08b6 243e 34f8 9fbe 28a3 9a3e
000003d0: 9f63 ffbe b059 d53c cd97 cf3e db99 393f
000003e0: ee25 36be 49f4 043f c4b8 1dbe 6353 493f
000003f0: 4f36 443f 13be 013f 9366 8abd b715 ca3e
0.46657413 -0.6789611 0.43549982 0.16628946 0.20034601 -0.5521705 0.30975977 0.21873659
0.3604393 -0.5647705 0.30873296 0.10455867 0.5409773 0.7072516 0.5462058 -0.1303199
-0.56496376 0.2950815 0.0341136 -0.55284786 0.38999796 0.16890207 0.27704984 0.38594958
0.37262186 -0.0013898688 0.4625675 0.116743356 0.6245998 -0.48555654 0.44301417 -0.6106021
-0.43060964 0.53329575 -0.56478566 0.37980768 0.3354759 -0.13205737 0.25283724 0.4232258
0.54194176 0.53036517 0.38630182 -0.4740596 0.5312288 0.425032 -0.14090672 0.64027065
-0.16220668 0.7817287 0.3373306 0.40398714 0.6468369 0.2874847 0.5087025 0.48942482
0.5033062 0.10721618 -0.35061744 0.44610327 0.4012373 0.49566206 -0.48209852 0.45465997
0.35243508 0.4945745 -0.4823245 0.38641128 0.5893992 0.22672994 0.4323598 0.060541086
-0.1310099 -0.48235923 0.095113635 0.688235 -0.4776389 0.11616269 0.9428816 -0.07631013
0.5743359 0.77779716 0.43372014 0.37433723 0.61010617 0.09521976 -0.4889387 0.019560236
-0.4132299 -0.3636749 0.13049541 -0.48232564 -0.111540236 0.49895144 -0.16350228 -0.021332901
0.049928356 0.5075685 0.56437165 0.6188245 -0.42034602 0.080102876 0.16390023 -0.09031633
0.5292859 -0.10111111 -0.5516185 -0.09431679 0.35914347 0.094251476 0.015860151 -0.047979716
0.4629927 0.33785734 -0.3187765 0.51386595 0.34648624 0.24749304 0.430608 0.27386725
0.11630258 0.31858325 0.22732116 -0.5876411 0.38787246 0.5436183 0.7796603 0.24337295
0.8807393 0.42991763 -0.5791348 0.84053594 0.3161022 0.31700572 -0.25267386 0.591687
-0.13225429 0.54761195 0.4260393 0.7170382 0.60334116 0.39733407 -0.44074553 0.6114255
0.0018385829 0.3502773 0.12550169 0.7377851 -0.57797146 -0.30006048 0.47542113 0.5088653
0.8060866 -0.1748132 0.30192682 0.17636552 0.08306949 0.19703577 -0.51773655 0.6142358
0.5005156 0.88305044 0.43425617 -0.51587486 -0.07758241 0.07959808 -0.48510617 0.6843561
-0.30947587 0.15411903 0.17115377 0.5889161 0.43000147 0.46814704 0.31471825 0.53847533
-0.4766167 0.20505446 0.50691754 0.39802712 -0.1876557 0.48423687 0.56799936 -0.11434636
0.3735265 -0.325809 -0.0509178 -0.19272497 -0.18529812 0.38853896 -0.47486478 -0.07691699
0.61927015 0.4018939 0.82663935 0.77518684 0.21347333 -0.10861747 0.36077252 0.102848075
-0.3194572 0.08672442 -0.57644767 -0.5042215 -0.40249217 -0.20296896 0.5863343 0.5015552
0.04034064 0.046540692 0.12657927 0.4383767 0.28087506 0.2348308 -0.3215598 -0.18643466
-0.13021536 0.15136011 0.22058739 0.21143343 1.1746881 0.5305144 0.22343457 -0.15301444
-0.19401205 -0.0046409536 0.30496296 0.39400694 -0.25041637 0.4422562 -0.39890715 0.48933968
0.32407427 0.7353945 -0.13123856 -0.13561201 -0.51148826 -0.48747855 -0.27742344 0.30427527
-0.051509105 0.16085064 -0.3124405 0.30202603 -0.49880692 0.026043743 0.40545502 0.7250039
-0.17787907 0.5193525 -0.15402514 0.78642863 0.7664537 0.50680655 -0.06757846 0.39469692

l1.bias f4 [8]
00000000: e68f 103f b5ea f63e cc9a 163f 0d8b f53e
00000010: d788 ff3e d844 223f 63f3 323f 5bc8 833f
0.5646957 0.48225942 0.5882995 0.4795765 0.49909088 0.633863 0.6990263 1.0295519

l2.weight f4 [8, 8]
00000000: 3505 46bf d34f bfbf 4d70 ff3e f58d bc3c
00000010: 3d31 0b3f a35f 053f aefc 493f 63d9 b13f
00000020: a1fb 913e 6b0e 7c3f 031f 9d3f 8af7 873f
00000030: 3e20 b93d 9b34 6cbf 3f7a 0abf e7f9 133f
00000040: d001 853f 9a8c 0b3d 3be4 3ebe 860a 493f
00000050: 86e3 97bf bab3 98bf 5a8b 863d e32c d93e
00000060: fbb4 54be ecde 163f 7462 953f 5f5a fcbc
00000070: 687a b43f ecde 573c 9c97 38bf b78a a83e
00000080: ec90 86bd b228 9ebe 9b13 14be e60e 763e
00000090: 8db3 a8be 7ef2 82be 80e6 853b 234f 82be
000000a0: ba57 903f 333b 9d3f e0eb f1be c7f4 b83f
000000b0: b924 21be 24e5 1f3e 1d34 263e 9d23 333c
000000c0: 718c 6a3f b521 6f3e f948 843f 822b d1be
000000d0: b8cb 82be c38c 743f c244 973f 7a68 7dbf
000000e0: b16b 43be 0b30 98bf b942 323d f0b0 343f
000000f0: 4a30 8cbf fdb2 22bf e546 683d 2c56 b03f
-0.77351695 -1.4946235 0.49890366 0.02301691 0.54372007 0.52099055 0.78901184 1.3894466
0.2851229 0.984595 1.2275089 1.0622418 0.09039353 -0.9226777 -0.5409278 0.57803196
1.0391178 0.034069635 -0.1864175 0.7853168 -1.186631 -1.1929848 0.06569548 0.42417058
-0.20772164 0.589339 1.167067 -0.030804811 1.4099855 0.013175707 -0.7210634 0.3291833
-0.065706104 -0.30890423 -0.14460604 0.24029121 -0.32949486 -0.25575632 0.0040863156 -0.25451002
1.1276772 1.2283691 -0.4725027 1.44497 -0.15736665 0.15614754 0.16230817 0.010933784
0.91620547 0.23352702 1.033477 -0.40853506 -0.2554605 0.95527285 1.1817858 -0.98987544
-0.1908405 -1.1889662 0.043520663 0.70582485 -1.0952237 -0.63554364 0.056708235 1.3776298

l2.bias f4 [8]
00000000: 83d6 843f c5f5 783e 3ab7 b3be c0fe 463d
00000010: bdb1 d0bd b358 493e 9b0d 8f3e 02c6 513f
1.0377964 0.24312504 -0.35100728 0.048582792 -0.10190151 0.19662742 0.27940068 0.8194276

l3.weight f4 [8, 8]
00000000: 9d25 773f e7ce 893d d87d dfbf bae6 cfbf
00000010: 1d8d 95bd 7d65 86be 0c15 b3bf 6d20 513f
00000020: e6c9 02bf 8ae0 b2be f0bf 9bbf 0043 b7be
00000030: 78c3 6abe 9ae5 4fbe 95a9 343f 5eb8 d4be
00000040: 6878 793e 2957 bb3e bc93 d7bf 955d 553f
00000050: 0175 f3bd 8c61 b1bf 96da a8bf e3cc d13d
00000060: f786 4a3f 1143 a1bf c2ac 38bf 69f0 033f
00000070: 1967 a0be 7576 7bbf 590e da3d 2b55 86bf
00000080: 060f 1abf a3ed 2c3f 996c 93bf 7761 1a3f
00000090: 8da6 f73d 1684 be3e 3f9c 75bf 07ac ecbe
000000a0: 8c82 b9bf 8e42 a7bf ead4 9cbe c407 e4bf
000000b0: 5394 0f3e 9071 723f 3649 073f fa8b 90be
000000c0: 16b4 90bf 5d12 293f e087 833f 2e43 c4bf
000000d0: 5b5f 183e ac07 a83e 7344 f33c e7fc 7dbf
000000e0: bd32 29be 0476 dd3e 9565 893f 93e0 8bbf
000000f0: 8735 f6bd 6235 943e d4f6 8fbf 5b2c f53e
0.9654177 0.067289166 -1.746028 -1.6242287 -0.07302306 -0.26249304 -1.3990798 0.816901
-0.5108932 -0.34936935 -1.216795 -0.35793304 -0.22926128 -0.2030243 0.7057126 -0.4154691
0.24362338 0.36589935 -1.684196 0.8334592 -0.11887551 -1.3857894 -1.3191707 0.10244157
0.7911219 -1.2598592 -0.7213861 0.5153871 -0.31328657 -0.98227626 0.10647268 -1.0494741
-0.60179174 0.67550105 -1.1517516 0.6030497 0.12092314 0.3721015 -0.9594154 -0.46224996
-1.4492965 -1.3067186 -0.3063119 -1.781487 0.14021425 0.9470453 0.52846086 -0.28231794
-1.1304958 0.66043645 1.0275841 -1.5333002 0.14880125 0.32818353 0.029695725 -0.99214023
-0.16523261 0.432541 1.0734125 -1.092791 -0.12021928 0.28946978 -1.1247201 0.47885403

l3.bias f4 [8]
00000000: 8e80 903e 1d46 d9bd f88f 39bf df53 103f
00000010: fa34 d83e 2e8a 90be bf4e a2be ac3c 02bf
0.2822308 -0.10609076 -0.72485304 0.5637798 0.42227918 -0.28230423 -0.31700704 -0.5087383
